simple_model.onnx (onnx, 453 bytes, 2 tensors)

fc.weight f4 [5, 10]
000000 1a 1a 40 be 9d 2e 9a 3e 0a c9 41 3e 32 21 b9 bd
       -0.18759957 0.30113688 0.18924347 -0.09039535
000010 56 f0 47 3e 38 8e db 3d 80 05 46 bc a4 48 bb 3d
       0.19525275 0.107204854 -0.012086272 0.091447145
000020 9a d0 7d be 54 d3 f9 3d 6c 79 a6 bd 9c cb 83 bd
       -0.24786606 0.12198511 -0.08128628 -0.0643532
000030 85 d4 9a 3e 4a 85 5a 3e 2a 8c 73 3e a8 67 b6 bd
       0.30240265 0.21339908 0.23783937 -0.089064896
000040 e2 f9 4f 3e 2a 9b 15 3e f0 d6 d9 3d 50 84 61 3d
       0.20310166 0.14609972 0.10636699 0.055057824
000050 48 14 48 be 18 b7 28 bd c0 b3 87 3d 90 0f d8 3d
       -0.19538987 -0.041190237 0.066260815 0.10549843
000060 fc d4 16 3e 7e d8 42 3e e2 2e 5f 3e c8 e3 a0 3d
       0.14729685 0.19027898 0.21795228 0.07855946
000070 e6 0e 24 3e 58 1a 6c bd d3 1b 8c be 21 2c 83 3e
       0.16021308 -0.05764231 -0.27364978 0.25619605
000080 f6 b6 64 be d0 fe be 3c b5 d0 87 3e 58 f2 cc 3d
       -0.22335419 0.023314863 0.26526418 0.10007161
000090 34 5c 7d be d0 ca 30 3e 18 bc fb 3d 3e 25 18 3e
       -0.24742204 0.17264867 0.122917354 0.14857957
0000a0 10 e9 f4 3c cc 83 a3 3d 60 6e a1 be bc e2 e1 bd
       0.02989629 0.07984123 -0.31529522 -0.11029574
0000b0 82 6b 96 bd 7c bd 9c be 4d b7 8e be ac eb 09 3e
       -0.07344724 -0.30613315 -0.27874222 0.13468808
0000c0 00 d1 5f be 68 b0 39 be
       -0.21857071 -0.181337

fc.bias f4 [5]
000000 d8 f3 ed 3d ea 39 76 3e e5 e8 65 be d4 db cc bd
       0.11618775 0.2404553 -0.22452123 -0.100028664
000010 50 cb 3f 3d
       0.046824753
